Using MSE loss function with naive estimator
loading data
Model: "model"
_________________________________________________________________
 Layer (type)                Output Shape              Param #   
=================================================================
 input_1 (InputLayer)        [(None, 600, 4)]          0         
                                                                 
 conv1d (Conv1D)             (None, 600, 1024)         33792     
                                                                 
 batch_normalization (Batch  (None, 600, 1024)         4096      
 Normalization)                                                  
                                                                 
 activation (Activation)     (None, 600, 1024)         0         
                                                                 
 dropout (Dropout)           (None, 600, 1024)         0         
                                                                 
 conv1d_1 (Conv1D)           (None, 600, 683)          8393387   
                                                                 
 batch_normalization_1 (Bat  (None, 600, 683)          2732      
 chNormalization)                                                
                                                                 
 activation_1 (Activation)   (None, 600, 683)          0         
                                                                 
 dropout_1 (Dropout)         (None, 600, 683)          0         
                                                                 
 conv1d_2 (Conv1D)           (None, 600, 456)          5606520   
                                                                 
 batch_normalization_2 (Bat  (None, 600, 456)          1824      
 chNormalization)                                                
                                                                 
 activation_2 (Activation)   (None, 600, 456)          0         
                                                                 
 dropout_2 (Dropout)         (None, 600, 456)          0         
                                                                 
 conv1d_3 (Conv1D)           (None, 600, 304)          3743152   
                                                                 
 batch_normalization_3 (Bat  (None, 600, 304)          1216      
 chNormalization)                                                
                                                                 
 activation_3 (Activation)   (None, 600, 304)          0         
                                                                 
 dropout_3 (Dropout)         (None, 600, 304)          0         
                                                                 
 conv1d_4 (Conv1D)           (None, 600, 203)          2530395   
                                                                 
 batch_normalization_4 (Bat  (None, 600, 203)          812       
 chNormalization)                                                
                                                                 
 activation_4 (Activation)   (None, 600, 203)          0         
                                                                 
 dropout_4 (Dropout)         (None, 600, 203)          0         
                                                                 
 conv1d_5 (Conv1D)           (None, 600, 135)          1671840   
                                                                 
 batch_normalization_5 (Bat  (None, 600, 135)          540       
 chNormalization)                                                
                                                                 
 activation_5 (Activation)   (None, 600, 135)          0         
                                                                 
 dropout_5 (Dropout)         (None, 600, 135)          0         
                                                                 
 conv1d_6 (Conv1D)           (None, 600, 90)           1117890   
                                                                 
 batch_normalization_6 (Bat  (None, 600, 90)           360       
 chNormalization)                                                
                                                                 
 activation_6 (Activation)   (None, 600, 90)           0         
                                                                 
 dropout_6 (Dropout)         (None, 600, 90)           0         
                                                                 
 conv1d_7 (Conv1D)           (None, 600, 60)           739860    
                                                                 
 batch_normalization_7 (Bat  (None, 600, 60)           240       
 chNormalization)                                                
                                                                 
 activation_7 (Activation)   (None, 600, 60)           0         
                                                                 
 dropout_7 (Dropout)         (None, 600, 60)           0         
                                                                 
 conv1d_8 (Conv1D)           (None, 600, 40)           494440    
                                                                 
 batch_normalization_8 (Bat  (None, 600, 40)           160       
 chNormalization)                                                
                                                                 
 activation_8 (Activation)   (None, 600, 40)           0         
                                                                 
 dropout_8 (Dropout)         (None, 600, 40)           0         
                                                                 
 conv1d_9 (Conv1D)           (None, 600, 27)           324027    
                                                                 
 batch_normalization_9 (Bat  (None, 600, 27)           108       
 chNormalization)                                                
                                                                 
 activation_9 (Activation)   (None, 600, 27)           0         
                                                                 
 max_pooling1d (MaxPooling1  (None, 1, 27)             0         
 D)                                                              
                                                                 
 K562 (Dense)                (None, 1, 1)              28        
                                                                 
=================================================================
Total params: 24667419 (94.10 MB)
Trainable params: 24661375 (94.08 MB)
Non-trainable params: 6044 (23.61 KB)
_________________________________________________________________
Training...
Training set: (700000, 600, 4)
Epoch 1/200
10938/10938 - 2070s - loss: 0.2885 - val_loss: 0.3001 - 2070s/epoch - 189ms/step
…
