…
+-----------------------------------------------------------------------------------------+
Using negative log likelihood loss function
loading data
number of fasta seq:  2346589
number of counts:  2346589
number of fasta seq:  122389
number of counts:  122389
number of fasta seq:  131326
number of counts:  131326
Model: "model"
_________________________________________________________________
 Layer (type)                Output Shape              Param #   
=================================================================
 input_1 (InputLayer)        [(None, 300, 4)]          0         
                                                                 
 conv1d (Conv1D)             (None, 300, 1024)         33792     
                                                                 
 batch_normalization (Batch  (None, 300, 1024)         4096      
 Normalization)                                                  
                                                                 
 activation (Activation)     (None, 300, 1024)         0         
                                                                 
 dropout (Dropout)           (None, 300, 1024)         0         
                                                                 
 conv1d_1 (Conv1D)           (None, 300, 512)          8389120   
                                                                 
 batch_normalization_1 (Bat  (None, 300, 512)          2048      
 chNormalization)                                                
                                                                 
 activation_1 (Activation)   (None, 300, 512)          0         
                                                                 
 dropout_1 (Dropout)         (None, 300, 512)          0         
                                                                 
 conv1d_2 (Conv1D)           (None, 300, 256)          4194560   
                                                                 
 batch_normalization_2 (Bat  (None, 300, 256)          1024      
 chNormalization)                                                
                                                                 
 activation_2 (Activation)   (None, 300, 256)          0         
                                                                 
 dropout_2 (Dropout)         (None, 300, 256)          0         
                                                                 
 conv1d_3 (Conv1D)           (None, 300, 128)          2097280   
                                                                 
 batch_normalization_3 (Bat  (None, 300, 128)          512       
 chNormalization)                                                
                                                                 
 activation_3 (Activation)   (None, 300, 128)          0         
                                                                 
 dropout_3 (Dropout)         (None, 300, 128)          0         
                                                                 
 conv1d_4 (Conv1D)           (None, 300, 64)           1048640   
                                                                 
 batch_normalization_4 (Bat  (None, 300, 64)           256       
 chNormalization)                                                
                                                                 
 activation_4 (Activation)   (None, 300, 64)           0         
                                                                 
 average_pooling1d (Average  (None, 1, 64)             0         
 Pooling1D)                                                      
                                                                 
 K562 (Dense)                (None, 1, 1)              65        
                                                                 
=================================================================
Total params: 15771393 (60.16 MB)
Trainable params: 15767425 (60.15 MB)
Non-trainable params: 3968 (15.50 KB)
_________________________________________________________________
Training...
Training set: (2346589, 300, 4)
Epoch 1/200
18333/18333 - 2679s - loss: 2.1932 - val_loss: 2.1544 - 2679s/epoch - 146ms/step
…
